src/workerMain/resources/bkgm_net.onnx (onnx, 206245 bytes, 4 tensors)

0.bias f4 [256]
000000 30 45 2d 3d 75 13 88 3d 32 a5 28 bd fb f3 d0 3d
       0.04230231 0.06644336 -0.041173168 0.102027856
000010 a4 01 5b 3c 21 a8 2b 3d 8b 73 a1 bc 18 1a 07 3e
       0.01336709 0.041908387 -0.019708415 0.13193548
000020 f2 9e c3 3c 8d bb bd bb 3a 62 5b 3d 7b 34 d7 3d
       0.023879502 -0.00579018 0.053560473 0.10508057
000030 c4 ab 36 bd 31 81 81 3b 52 82 42 bd c2 96 95 bd
       -0.044597402 0.0039521684 -0.047487564 -0.073041454
000040 1a 6d dc bd e4 b0 39 bd 9a e5 91 bd eb 12 85 bc
       -0.10762997 -0.04533471 -0.07123871 -0.016244372
000050 23 2c 64 bc 75 5c 50 3d 0d ea 32 bd ec 4e bd ba
       -0.013926539 0.050869424 -0.04368024 -0.0014443076
000060 1d 03 e0 bb e9 73 b2 3c b6 1c 4a bd 73 f7 0b bb
       -0.0068363086 0.021783786 -0.049343787 -0.0021357208
000070 76 49 62 3d 76 01 89 3d 40 bb 19 3d c0 bb 6d bc
       0.05524584 0.06689732 0.03753209 -0.014510095
000080 8f d8 7b 3d fb a4 c1 bc 47 36 c3 3d 64 7d 8b 3b
       0.061485823 -0.02363824 0.09531837 0.004256891
000090 c3 ec 4e bd bb cc 92 3d 0f 57 0e 3d 80 b9 a8 bc
       -0.050518762 0.071679555 0.034750994 -0.020596266
0000a0 79 ee ae 3d be 02 9e bc 4f 8c dd 3d 4c ff ff bc
       0.08541579 -0.019288417 0.10817777 -0.031249665
0000b0 50 88 27 3d 6d f5 e5 bc fc c4 84 3a b8 27 3a bd
       0.040901482 -0.02807113 0.0010129507 -0.045448035
0000c0 e0 a4 72 3d 33 26 28 3e 4d 90 23 3d 9e c9 c0 3c
       0.05923927 0.16420822 0.039932538 0.023533639
0000d0 8a c2 1c 3d 6a 8f 49 3d b4 30 74 bc 7d 26 2a bd
       0.038271464 0.049209036 -0.01490419 -0.04154061
0000e0 9a 11 a1 3d c6 fd 55 bd 49 56 24 3d ca 15 1e bd
       0.07864685 -0.05224397 0.04012135 -0.038595
0000f0 31 00 3d bc 9c d9 bb 3c 8d 78 92 3b 88 bd 64 bd
       -0.01153569 0.022930913 0.004469937 -0.055844814
000100 b1 86 d0 3d b5 20 f8 3b 4a ef c4 3c 3c 61 44 3d
       0.1018194 0.0075722584 0.024039883 0.047944292
000110 5c bd 01 3e be 05 7f bc 48 0d bc 3d 55 90 e2 3d
       0.12669891 -0.015565334 0.09182221 0.110626854
000120 f9 fe 83 bc ec 42 0f 3d 1a 84 c2 3c 3f d9 0f bd
       -0.016112791 0.03497593 0.023744632 -0.03511929
000130 1e fb d1 ba f1 93 27 bd 83 b5 13 3e d9 87 ba 3d
       -0.0016020273 -0.040912572 0.1442471 0.09107942
000140 ca b1 39 bd 61 3a 81 ba 9e f3 bf bd 48 b6 8a 3d
       -0.04533557 -0.0009859317 -0.09372638 0.06773049
000150 65 7d 6b 3d a2 fd bf 3d 9a 31 a4 bd a8 44 1b 3c
       0.057492632 0.093745485 -0.08017273 0.009476818
000160 5c b3 d9 3d 2b 89 b2 bd 0f 68 65 bd dc 04 e6 3d
       0.10629913 -0.08717569 -0.05600744 0.112313956
000170 ff f7 34 bd 60 e0 8d bd 25 0c 93 3d d6 31 e9 3d
       -0.04418182 -0.06927562 0.07180051 0.113864586
000180 b8 a7 27 bd ca 1b 67 3d 70 63 69 3d f5 69 99 bb
       -0.040931433 0.056422986 0.056979597 -0.0046818205
000190 46 fa 25 3e 20 97 d8 bd 28 f9 36 bc 40 19 a4 bc
       0.16208753 -0.105757 -0.011167802 -0.020031571
0001a0 85 25 e9 3c 88 a6 e2 bc bb f3 b9 3c 05 ea ce bd
       0.028460274 -0.027667299 0.022699228 -0.101032294
0001b0 4f 7d df 3b 84 6b 0a 3d a6 5d 38 3d e6 41 65 bc
       0.006820358 0.03379394 0.045011185 -0.013992762
0001c0 57 85 4e 3d a0 b5 b1 bd 97 47 b1 bb 60 6a 8e 3d
       0.05042013 -0.0867722 -0.0054101455 0.06953883
0001d0 7a ec 77 3d 7f 48 45 bd 18 25 b5 bc 05 ec 07 bc
       0.060528256 -0.04816484 -0.022112414 -0.008296018
0001e0 90 57 b5 3d e7 fa de bb a3 f2 68 bb d7 65 ce 3d
       0.08854592 -0.0068048122 -0.0035545013 0.10078018
0001f0 eb 9b 75 3d 03 3d 28 3e d4 20 7b bd 92 75 f3 bc
       0.059963148 0.16429524 -0.061310604 -0.029719148
000200 10 a7 9e bc d0 b6 0b bd da 61 30 3d f1 84 23 3d
       -0.019366771 -0.03410989 0.04306207 0.039921705
000210 ce 9d db bc 74 ea 9e bd 89 22 d3 3d df ea ee bc
       -0.026808646 -0.07759562 0.103093214 -0.02916473
000220 d2 60 f8 bc cd 0b 83 bd a3 85 b7 3c 4f 54 19 3c
       -0.030319605 -0.06398735 0.02240259 0.00935848
000230 58 04 dd 3d b9 96 54 b9 7a 97 cc 3d 8f 44 cb 3d
       0.10791844 -0.00020274044 0.09989829 0.09925186
000240 af ca af b8 22 84 b8 3c 30 87 dd 3b db 63 2c 3d
       -8.382403e-05 0.022523943 0.0067605004 0.042087417
000250 bd f0 ee bc e1 8d ee bc 0e 4b a1 bd 80 e7 e0 bc
       -0.029167527 -0.029120388 -0.07875644 -0.027454138
000260 3f dc 07 3c 84 43 a8 3d e0 5c 33 3d eb 57 93 bb
       0.008292257 0.082160026 0.043789744 -0.0044965646
000270 83 6b 5b bd 72 74 cc 3c e3 7d a4 bc f3 5d fc 3d
       -0.053569328 0.02495787 -0.020079559 0.12322607
000280 d1 6a 01 3c b2 c6 85 bd 8a 42 5c 3d 77 83 7d bd
       0.007899002 -0.06532039 0.053774394 -0.061892953
000290 75 03 51 bd ac 41 43 bd 6e a6 71 3d 42 94 da 3c
       -0.051028688 -0.04767005 0.05899661 0.026682023
0002a0 07 07 16 bd e1 e5 e0 3d 37 dd ec 3d 6d a7 a0 3d
       -0.036627796 0.10981346 0.11565631 0.07844434
0002b0 07 ed 9d bd 0b 5d 4f 3d 31 af be 3d c7 d4 40 3d
       -0.07711225 0.050625842 0.09310759 0.04707792
0002c0 93 75 03 bd e9 b6 c3 3d ef d0 35 3d ef 61 99 bd
       -0.03209455 0.09556372 0.044388708 -0.074893825
0002d0 28 4c a1 3c 3b c7 29 3d e6 a6 d7 3c 09 27 95 3b
       0.019689634 0.041449767 0.0263247 0.0045517725
0002e0 39 e0 1e 3e e0 7d 54 bd 49 7f 51 bd df e1 9f bc
       0.15515222 -0.051877856 -0.05114678 -0.019516883
0002f0 17 2c 0d bc 0a 8a 1c bb e1 dd 6b bd b6 4c fe 3c
       -0.008616469 -0.0023885989 -0.057584647 0.031042438
000300 ce 46 c7 bc 61 9d 2c 3d 85 34 ea 3d f1 88 5f bd
       -0.024325754 0.042142276 0.114357986 -0.054573957
000310 1f a1 34 3d 3e 8a 56 3d 99 f1 23 3e f8 19 1f bd
       0.04409897 0.05237793 0.16010131 -0.038843125
000320 66 48 1e bc 87 0b 91 3d 69 ec e1 3d 2a 02 5a bd
       -0.009660816 0.07082277 0.1103142 -0.05322472
000330 a4 f1 17 3d bd 8f e1 3c dc 1b 2b bd c6 f7 b6 3d
       0.03709568 0.02753436 -0.041774616 0.08933978
000340 15 d5 82 3d 9f 7d 92 bb 97 37 83 3c c1 15 10 bd
       0.063882984 -0.0044705416 0.016017718 -0.035176996
000350 ff f7 83 bd 57 59 b0 3d 33 f6 8a bc c5 9d 11 3e
       -0.06443786 0.0861079 -0.0169631 0.1422034
000360 fd 13 62 bc a8 68 dc 3a b9 b3 80 3d 70 f3 cf bd
       -0.013798711 0.0016815858 0.062842794 -0.10153854
000370 c2 54 be bc ca df b3 3b 84 81 d1 bb bd c2 55 bd
       -0.023233775 0.005489324 -0.0063936133 -0.05218767
000380 f3 0b 82 3d 23 30 31 bc c8 a6 44 bd 3c 25 c2 bd
       0.063499354 -0.010814699 -0.048010617 -0.09479758
000390 cb 60 43 bd 70 50 91 bb 05 da b0 3c 2b 51 b5 3d
       -0.04769973 -0.0044346377 0.021588335 0.08853372
0003a0 25 c4 15 bd 81 aa ab 3c d6 7d cc bb c4 bb ba 3d
       -0.03656401 0.020955326 -0.0062405868 0.09117845
0003b0 df f8 de 3d 77 23 9d bc 21 2c 6f 3d 54 c0 92 bc
       0.10887312 -0.01918195 0.058391694 -0.017913975
0003c0 2c 77 3a 3e de 21 17 3d b1 83 18 3d 6a 37 17 bc
       0.18209523 0.036897533 0.037234966 -0.00922952
0003d0 22 b1 6b bd 98 57 87 3d d4 12 aa 3d 8a fc 6d ba
       -0.057541974 0.06608504 0.083043724 -0.0009078464
0003e0 23 e0 24 3e 36 93 a1 3d 5f 1d 72 bd c1 64 45 bd
       0.16101126 0.078894064 -0.05911004 -0.04819179
0003f0 55 1f fa 3c 9c be 72 bc 33 21 4a bd bd 16 c4 3d
       0.030532518 -0.014815953 -0.049348067 0.095746495

0.weight f4 [256, 198]
000000 93 76 9a ba 77 86 36 bd d1 03 49 be 20 b3 d8 bd
       -0.0011784605 -0.04456183 -0.19630362 -0.105810404
000010 10 10 15 bd 3e 9f 53 3e 05 a8 0d bc bc 78 0b 3e
       -0.03639227 0.20666215 -0.008646016 0.13620275
000020 c2 d3 aa 3d fd 9a ed 3c b0 5d 12 3c 74 be a2 3d
       0.08341171 0.029004568 0.00893347 0.07946482
000030 48 24 ba 3d 89 58 d0 3c cb 6a d6 bc a4 27 da bc
       0.09088951 0.025432842 -0.02617397 -0.02663023
000040 0c d7 27 bd d6 37 85 3b dd 8b b6 bd 5c 6d 91 bd
       -0.04097657 0.004065494 -0.089133956 -0.07100937
000050 17 13 86 3d 5d 70 6f bd 0a 73 4a bd d9 43 19 3d
       0.0654661 -0.058456767 -0.049426116 0.03741822
000060 c0 3a 97 bd b6 11 c7 3d 60 7f f5 3d 99 f6 bb 3d
       -0.073842525 0.09720175 0.119871855 0.09177894
000070 29 74 3c bc ad d0 25 3d 79 e0 81 3c 46 c0 b6 bd
       -0.011502304 0.04048221 0.015854107 -0.08923392
000080 1e 05 7b bc 41 e8 16 bd c8 7c 79 3d 5f a5 88 3c
       -0.015321044 -0.03684259 0.060910016 0.016680418
000090 4b 4b b4 3d 78 77 08 be fd ab 67 3b 7a 1a af bd
       0.088034235 -0.13326824 0.0035350316 -0.08549972
0000a0 02 23 62 bd 97 b6 14 3d 8e 24 8f 3c 39 16 cc 3d
       -0.055209167 0.036306944 0.017473485 0.09965176
0000b0 bd 17 6a 3a 5b 51 29 be d1 e0 b8 3d e7 73 f8 3d
       0.0008929929 -0.16534941 0.09027255 0.121314816
0000c0 b7 46 99 bd 08 85 74 3d 35 a1 18 bd b2 9f c6 bc
       -0.07484191 0.05969718 -0.037263114 -0.02424607
0000d0 05 85 b2 bd 44 40 3c 3d 97 74 7b bd 10 ef b5 3d
       -0.08716778 0.045959726 -0.061390486 0.08883488
0000e0 e2 10 81 bc 9b 93 dd bd 48 6e 1c bd f0 2d b6 ba
       -0.01575512 -0.10819169 -0.03819111 -0.0013899188
0000f0 12 b8 dc 3c 4c eb 46 3b b2 d1 ae 3d 00 7c b4 bc
       0.02694324 0.003035265 0.0853609 -0.022031784
000100 0e fe 70 3d cc 35 6f 3d 6d ba 00 3e 71 e3 95 3b
       0.058836035 0.058400914 0.12571116 0.0045742323
000110 95 05 e8 bc 82 75 7c 3c b0 ea 70 3d 0e 6d cf bd
       -0.028322974 0.015408875 0.058817565 -0.101282224
000120 80 9d 10 3e 23 37 a0 bd bf ca 91 bc e9 40 8f bd
       0.14122581 -0.078230165 -0.017796872 -0.069948025
000130 2c 00 a4 3c eb cc 10 3e 8c 7d ad 3c be 7e 02 3e
       0.020019613 0.1414067 0.02117803 0.12743661
000140 10 1e 36 3e d7 da b5 3d c7 b0 a6 3c f5 8c 42 bb
       0.17784905 0.08879631 0.020347966 -0.0029686068
000150 3c 2d 0c bc 4b 60 f2 3d 76 3e 91 bc 6a a8 92 bc
       -0.008555707 0.11834773 -0.017729979 -0.017902572
000160 a7 a4 f8 3c 9b 0e 09 3c ff 86 1a bd 65 5f f6 3d
       0.03035195 0.008365299 -0.0377264 0.12029914
000170 80 98 8d 3c 43 6c 2e bd 45 78 d5 bd 99 bb c3 3c
       0.017284632 -0.042583715 -0.1042333 0.023893164
000180 1c 27 04 be 4d b5 8a bc 7a ba 06 bd a5 b4 ec 3c
       -0.12905544 -0.016932154 -0.03289268 0.028894732
000190 8d 86 d2 3d c4 68 46 3c 30 c6 fc 3b 0c 3a 01 bc
       0.1027957 0.012109939 0.0077140555 -0.007887375
0001a0 79 f8 84 3d 2f 2b 9f bc c3 88 a1 3c d1 b4 72 3d
       0.06492705 -0.019429771 0.019718533 0.05925447
0001b0 39 b5 6b bd bb 7f bd bc bb 30 fd 3d b0 6b 94 3c
       -0.057545874 -0.023132196 0.1236281 0.018117756
0001c0 4e 6b da bd d8 22 05 bd 75 76 84 bd fe 70 42 3d
       -0.10664998 -0.032503933 -0.064679064 0.04747104
0001d0 fd 8c 8a 3c c5 0f d1 bd a7 80 d3 bc 2c 44 ab bc
       0.016912932 -0.10208086 -0.025818182 -0.02090653
0001e0 c0 0a 98 3d 81 4b ca bc e9 5f 3b bc a1 12 ab bc
       0.074239254 -0.024694206 -0.011436441 -0.020882906
0001f0 a4 f9 e3 3b b7 b8 26 bd 42 da 29 3b 07 4a 5d 3e
       0.0069572497 -0.0407035 0.0025917445 0.2161027
000200 2f c9 72 3e 5c 3d f0 39 a5 14 a6 3c d0 88 a1 bc
       0.23709558 0.00045822083 0.020273516 -0.019718558
000210 23 66 83 3a dd 80 02 bd c1 47 42 be e4 0d 01 3d
       0.0010024946 -0.031861175 -0.18972684 0.031507388
000220 64 14 b6 3c 52 ba bb bb 68 31 97 3d 64 91 ed 3c
       0.02222652 -0.005728998 0.0738247 0.028999992
000230 85 b1 12 bc 2b 5e 8c bc 08 fe 75 bd 04 1a 24 3e
       -0.008953457 -0.017134747 -0.060056716 0.16025549
000240 c8 37 0e bc 75 64 7a 3d 04 43 67 bb 48 09 22 bd
       -0.0086802915 0.06113096 -0.0035287747 -0.039559633
000250 5a dc f9 3d bf 00 88 bc 1f 28 23 bd e2 b8 90 bd
       0.12200232 -0.016601918 -0.039833184 -0.070665136
000260 e3 9a 2f bd 88 3e b4 bd 9a 91 2c be ed 1f bb 3c
       -0.04287232 -0.088009894 -0.16852418 0.022842372
000270 dc f7 d8 bc 8f 80 aa 3b 70 7b 14 bd a8 d5 74 3d
       -0.026485376 0.0052033137 -0.03625053 0.05977407
000280 cf 6f 3b be c8 fb 46 bd 8c 21 f2 bc a7 6e 53 3c
       -0.1830437 -0.04857996 -0.029557012 0.0129048
000290 94 c5 ca 3d 30 73 42 bd 8a 7c 99 bd d4 bb 70 3d
       0.09900966 -0.047473133 -0.07494457 0.058772877
0002a0 8b 22 05 bd 3f 64 e7 3b 6f 44 48 bd d4 12 95 3d
       -0.032503646 0.007061511 -0.04889339 0.07278982
0002b0 ec eb 5a bc 0e f2 ab 3d 1a 48 7e bd 66 c8 b0 3c
       -0.013361912 0.08395778 -0.06208048 0.021579932
0002c0 bf 87 cb bb e3 06 17 be da 29 74 bc f4 ff 2c be
       -0.0062112506 -0.14748721 -0.014902556 -0.16894513
0002d0 fd 6d cf bc 92 a0 b6 bd 78 ed 91 3d 75 c4 53 be
       -0.025321001 -0.08917345 0.07125372 -0.20680411
0002e0 bf fc 68 bc 88 2a 7d 3d 6c 28 80 bd bc 8c 39 bd
       -0.014220416 0.06180814 -0.0625771 -0.04530023
0002f0 b9 0c ab 3d 0b 03 2f 3c 96 1e 16 bd d0 5c ff bc
       0.08352036 0.010681878 -0.036650263 -0.031172186
000300 38 db 05 3d a2 1f fc bd 16 50 8a bd 2d bf f0 3d
       0.032679766 -0.12310721 -0.067535564 0.11755214
000310 b7 93 2e 3d 16 3b 9c 3d 29 f5 6a bc df 4d 60 bc
       0.04262134 0.07628457 -0.014340677 -0.013690441
000320 7d d1 9e 3d 35 87 8d bc 26 8f 16 3d 70 a8 71 3c
       0.077548005 -0.017276386 0.03675761 0.014749631
000330 92 65 76 bd 04 28 6c bd 2a 7a 85 bd 66 ed b7 bd
       -0.06015546 -0.05765535 -0.065174416 -0.08980827
000340 62 10 d0 bc fd df e8 3d 22 4a eb bc fe ee e8 bd
       -0.025398437 0.113708474 -0.028721873 -0.11373709
000350 8d cd 9e 3b ae e7 84 bd ba 83 10 bc cd 86 2d bd
       0.004846281 -0.06489502 -0.008820469 -0.042364884
000360 32 76 72 bc b5 f0 59 3c 65 84 81 3c bf 1c c6 bc
       -0.014798688 0.013302018 0.015810201 -0.02418363
000370 1c 2a 97 3d 92 a0 e7 bb bf a2 0c be 7a 46 0c 3e
       0.073810786 -0.007068702 -0.13733958 0.1369876
000380 86 00 92 bd d6 9c 2f 3d af fe 5a 3d 5a 7d c5 3c
       -0.07129006 0.04287418 0.05346554 0.024107624
000390 47 59 6c bd 62 2a eb 3b 8f 67 a9 3d 5f ce e8 b8
       -0.05770233 0.0071766833 0.08271705 -0.00011101062
0003a0 f4 2b 57 3d 38 87 86 bd 96 48 b8 3d 0f 19 51 3d
       0.05253215 -0.0656876 0.0899822 0.05104929
0003b0 d7 fc af 3d 34 fb bb bd 83 34 5e 3d 45 8b cf bd
       0.08593147 -0.091787726 0.054249298 -0.101339854
0003c0 94 19 cc 3c cf 31 24 bd e5 66 d7 bc 99 c5 c0 3c
       0.02491454 -0.040086564 -0.026294181 0.023531722
0003d0 e9 36 65 bd ac f6 22 3b 76 96 ec 3c de 52 73 3c
       -0.05596057 0.0024866266 0.02888034 0.0148513
0003e0 aa 75 90 bd 8f 3f 37 bd 90 16 09 bc 8e 07 54 ba
       -0.07053693 -0.04473835 -0.008367196 -0.0008088284
0003f0 da 77 06 3e 7e 99 90 bd 3c 6e 58 3d a2 47 bd bd
       0.13131657 -0.07060526 0.052839503 -0.092421785

2.bias f4 [2]
000000 b8 f0 8e 3d 1d a3 a9 bd
       0.06979507 -0.082830645

2.weight f4 [2, 256]
000000 27 50 f5 bd 0e d6 2f 3d 31 d4 f4 3d 82 80 7b be
       -0.119781785 0.042928748 0.11954535 -0.2456074
000010 50 c5 4f bd 2f 47 60 3e fe f6 93 be 4a 79 5d 3e
       -0.05072528 0.21902154 -0.28899378 0.216283
000020 07 58 5c 3d 61 2e 1e 3e 34 03 e4 3c 4e 80 f7 be
       0.053794887 0.1544738 0.027833559 -0.48340076
000030 5d 12 a8 be a3 12 e0 3c 90 cc 6b be be 2d a8 bd
       -0.3282651 0.027352637 -0.23027253 -0.0821185
000040 05 9d 73 3e 1d bf 24 3d f6 48 fa bd dd c2 84 be
       0.23790367 0.040221322 -0.122209474 -0.2592992
000050 59 f1 89 bd 4f 25 fa bd d2 d7 a2 39 c9 f8 e2 3d
       -0.067354865 -0.12214147 0.00031059847 0.11082608
000060 51 b8 00 be f7 ec f0 be bf 83 08 be 20 ea dc 3b
       -0.12570311 -0.4705579 -0.13331507 0.006741777
000070 91 37 54 3d 0c 04 0d 3e 86 57 92 be 5c 1a d1 3d
       0.051810805 0.13771075 -0.285824 0.10210106
000080 24 94 1b 3e 47 cb 2a bf 8f 15 48 be 85 bf 18 3e
       0.1519323 -0.66716427 -0.19539474 0.14916809
000090 08 93 07 3d 82 b8 f7 3e ce 52 c6 bd b5 20 87 3e
       0.033099204 0.48382956 -0.096837625 0.2639214
0000a0 92 76 c3 3d 92 54 4a 3e c5 f7 f4 3d ce 13 9a 3d
       0.095441 0.19758824 0.11961321 0.07523309
0000b0 a1 f2 b0 3e 89 69 bb bc 45 f9 cf bb 09 51 50 bd
       0.3456011 -0.022877472 -0.006346854 -0.05085853
0000c0 c2 38 5f bd e7 bb 21 bf 07 aa 4a 3b b4 3b 39 be
       -0.054497488 -0.6317734 0.0030924098 -0.18089181
0000d0 47 56 eb 3d 93 65 f6 3b e1 d6 d6 bd 34 05 2b be
       0.114910655 0.007519433 -0.10490204 -0.16701204
0000e0 d3 d0 9d bd c9 15 9d 3d 19 f4 b0 bc d5 ae 83 bd
       -0.07705846 0.07670171 -0.02160077 -0.06429831
0000f0 a2 2e ae 3d 75 08 a1 bc bd 9f 86 3c 11 6c bd 3d
       0.08504988 -0.019657353 0.016433591 0.09249128
000100 8a 1e 98 3f d9 4f c9 be a0 f5 bc be 6d 36 8d bd
       1.188432 -0.3931873 -0.36906147 -0.068951465
000110 dd ee 09 3e b8 f9 1a bd 3b 69 7e be 91 81 5a 3e
       0.13470025 -0.037835807 -0.2484483 0.21338488
000120 c4 e7 96 3f ba 21 9c bd ca a6 20 3f 22 da 45 bc
       1.1789479 -0.0762362 0.627545 -0.012075933
000130 0e ac b8 bd ca 43 00 3f 01 f5 20 3f 92 b0 67 be
       -0.09017192 0.5010344 0.62873846 -0.2262595
000140 13 f3 42 3d 23 48 9b 3e e1 2c 16 3c 0f 92 19 bd
       0.047595095 0.30328473 0.009165973 -0.037492808
000150 59 73 71 be 6f f0 ca be c7 16 72 3d fc 66 78 3d
       -0.23579158 -0.3963656 0.059103753 0.06064509
000160 17 8a a5 3e e0 76 3b 3f 70 63 d6 3e da 6a 39 be
       0.32331917 0.73228264 0.4187274 -0.18107167
000170 04 95 bf 3c d1 ad 2b be ad 7e a4 3e 05 2f 7b 3e
       0.023386486 -0.16765524 0.32127896 0.24529655
000180 4a 0f 7e 3e 60 be 1e 3e 8e 5f eb 3d 32 e9 02 bc
       0.2481052 0.1550231 0.11492835 -0.007990168
000190 87 0a 91 3e 2b e3 8b ba b5 1c a9 3c 9a b4 d5 be
       0.28328344 -0.001067256 0.020643571 -0.4173935
0001a0 3d 52 8d 3b 11 93 9a 3e 0f 49 f0 bd a8 b5 5a bf
       0.004312782 0.30190328 -0.11732685 -0.85433435
0001b0 99 33 82 3d e1 43 1f bd ab a9 16 be a5 27 e7 3d
       0.06357498 -0.038883094 -0.1471316 0.112868585
0001c0 d7 0f 06 be 53 dc c3 bd cf 8a ef bd d5 ad 90 3d
       -0.1309198 -0.09563508 -0.116963975 0.07064406
0001d0 ab d8 ea 3b d0 27 b1 3d a5 37 11 3f 3c ad ae bf
       0.007166942 0.08650172 0.5672553 -1.3646617
0001e0 87 51 12 be 75 2c 59 bc d4 6e 78 3d 26 1f ab be
       -0.14288913 -0.013255228 0.06065257 -0.33422202
0001f0 ba 4d 91 3d eb bd fd be a4 bd 71 3d 05 95 4d be
       0.07094903 -0.49558958 0.059018746 -0.20076378
000200 0e 84 f0 bd 54 92 b0 bd 22 d2 c6 bc 45 ce 23 3f
       -0.117439374 -0.0862166 -0.024270121 0.6398662
000210 7d 73 95 3c e0 df 67 bb 12 20 5e 3e b0 c0 89 3f
       0.018243546 -0.0035381243 0.21691921 1.0761929
000220 80 fb 93 be 02 32 6b 3d f5 45 ad be 4f 39 0a bd
       -0.28902817 0.057420738 -0.33842435 -0.03374606
000230 ff e8 a2 3e 77 fe 88 3d e7 3a 50 3e 62 5b 06 be
       0.31818387 0.0668916 0.2033497 -0.13120797
000240 be b9 d1 bd 25 ec 0f ba e7 f2 4e be 2c 1f 08 3d
       -0.10240506 -0.00054902054 -0.20209847 0.033232853
000250 d0 df 08 3e a3 e6 32 bf 71 fc c2 3d 29 65 44 bd
       0.13366628 -0.69883174 0.095208056 -0.047948036
000260 e6 6d 9d bd a7 34 f6 bc 39 56 44 bc de 0a 34 3e
       -0.07686977 -0.030054403 -0.011983448 0.1758227
000270 de c9 a4 bd 63 6f 9f be f2 03 d5 bd 83 66 b5 3e
       -0.080463156 -0.3113967 -0.10401143 0.35429773
000280 9e b1 1b bf 2a 2f 86 bd f7 09 e7 3d 41 2c 35 3e
       -0.608179 -0.065519646 0.112811975 0.17692663
000290 db d3 cc 3e b7 42 9b be e3 55 c8 bd 0e b0 26 be
       0.40005383 -0.30324337 -0.097820066 -0.16278097
0002a0 4b ee 03 3d c3 f7 1c 3e 7e b3 c8 3e 8d 4b a4 3e
       0.032209676 0.15328889 0.39199442 0.3208889
0002b0 ff e5 c5 be 69 50 31 3e 48 c1 17 bf 5b 3f 9a be
       -0.38652036 0.1731583 -0.592793 -0.3012646
0002c0 6d fa af bd 4b 62 49 3e 00 fd 77 be f7 ff f1 bd
       -0.08592687 0.19666402 -0.24217606 -0.118163995
0002d0 a8 40 e7 bd 7c fa 2d 3e ef eb 00 3e 63 9c 1d be
       -0.11291629 0.16990083 0.12590002 -0.15391688
0002e0 27 e5 da 3e aa 24 38 bd 50 d2 a5 bd 4a 6a a0 3d
       0.42752954 -0.04495684 -0.080967546 0.07832773
0002f0 89 10 cd be 22 25 51 3e 1d 04 fb bc 5f b7 2e be
       -0.40051678 0.20424321 -0.03064161 -0.17062138
000300 a1 57 ae be f9 62 bf bc 6a 83 38 3e 76 53 13 3f
       -0.3405123 -0.023362624 0.1801888 0.57549226
000310 22 ae 5f be 7f d7 bf bd cb 3a 99 3e fe f3 cd be
       -0.2184377 -0.093672745 0.29927668 -0.40225214
000320 70 75 0e bd 75 2b ac 3e 21 8e 0c 3e a7 c7 e7 bc
       -0.034779966 0.33626905 0.13726093 -0.028293444
000330 45 e5 0f 3b f6 96 0c 3d 56 84 6c bd 41 a7 8c be
       0.0021956724 0.034323655 -0.057743393 -0.27471355
000340 1b e0 b8 be cb 12 da bc 6c 78 58 3e 69 cc 1c 3d
       -0.3610848 -0.02662029 0.21139687 0.03828088
000350 9b 52 97 be 26 8c d8 3d 8e 82 93 bd 16 64 53 be
       -0.2955521 0.10573606 -0.07202636 -0.20643649
000360 1a 69 58 3d 5b d5 0f be 13 7e 92 be 4f b1 f4 be
       0.052834608 -0.14046232 -0.28611812 -0.47791526
000370 d7 da d0 3d 4e 33 c0 bb 21 c3 50 3d df 86 7a 3e
       0.101979904 -0.005865491 0.05096734 0.24465512
000380 9c 05 27 3d 34 a7 e8 3d 39 80 73 3d 83 1c 1b 3e
       0.040776834 0.113600165 0.059448455 0.15147595
000390 f0 6a 41 3d a6 18 78 be 8a e8 0e be 0e 8c 1a be
       0.047221124 -0.24228153 -0.13955894 -0.15092489
0003a0 1f 98 83 bd 63 be a0 3d a4 82 d7 3d 36 34 29 3f
       -0.06425499 0.078488134 0.105229646 0.6609529
0003b0 6e 44 0e be 59 25 33 3d 7f 04 d6 bc 27 fe 92 be
       -0.13893291 0.04373679 -0.02612519 -0.28709528
0003c0 36 a7 d5 3e 03 0b ab 3c 27 e8 8f be 06 17 e3 be
       0.41729134 0.020879274 -0.28106806 -0.44353503
0003d0 fe 23 b8 3c 0c 9e d6 3d 13 44 39 be 1d 0e b7 3e
       0.0224781 0.10479364 -0.18092375 0.35752955
0003e0 2b 70 ae bf 37 e3 98 bd 01 17 8e bd f9 e9 c7 3e
       -1.3627981 -0.07465213 -0.069379814 0.39045694
0003f0 e4 1d 18 3e 5e 1b 74 bd 00 38 3c bc ad 0d e3 3e
       0.14855152 -0.059596412 -0.011487961 0.4434637
